# parameters
nc: 3  # number of classes
depth_multiple: 1.00  # model depth multiple
width_multiple: 1.00  # layer channel multiple

# anchors
anchors:
  - [10,13, 16,30, 33,23]  # P3/8
  - [30,61, 62,45, 59,119]  # P4/16
  - [116,90, 156,198, 373,326]  # P5/32

# YOLOv5 backbone
backbone:
  # [from, number, module, args]
  # Two Stream
  [
   [-1, 1, Focus, [64, 3]],  # 0-P1/2
#    [-1, 1, Conv, [128, 3, 2]],  # 1-P2/4
#    [-1, 3, C3, [128]],
#    [-1, 1, Conv, [256, 3, 2]],  # 3-P3/8
#    [-1, 9, C3, [256]],
#    [-1, 1, Conv, [512, 3, 2]],  # 5-P4/16
#    [-1, 9, C3, [512]],
#    [-1, 1, Conv, [1024, 3, 2]],  # 7-P5/32
#    [-1, 1, SPP, [1024, [5, 9, 13]]],
#    [-1, 3, C3, [1024, False]],  # 9

   [-4, 1, Focus, [64, 3]],  # 1-P1/2
   
   [[0,1], 1, Add, [1]],    # 2 two stream fuse

   [-1, 1, Conv, [128, 3, 2]],  # 3-P2/4
   [-1, 3, C3, [128]],
   [-1, 1, Conv, [256, 3, 2]],  # 5-P3/8
   [-1, 9, C3, [256]],
   [-1, 1, Conv, [512, 3, 2]],  # 7-P4/16
   [-1, 9, C3, [512]],
   [-1, 1, Conv, [1024, 3, 2]],  # 9-P5/32
   [-1, 1, SPP, [1024, [5, 9, 13]]],
   [-1, 3, C3, [1024, False]],  # 11

    ######### Add Block #############
   #[[0,1], 1, Add, [1]],    # 20 two stream fuse
   #[[6,16], 1, Add, [1]],    # 21 two stream fuse
   #[[9,19], 1, Add, [1]],    # 22 two stream fuse
  ]


# YOLOv5 head
head:
  [[-1, 1, Conv, [512, 1, 1]],          # 12
   [-1, 1, nn.Upsample, [None, 2, 'nearest']],  # 13
   [[-1,8], 1, Concat, [1]],           # 14 cat backbone P4
   [-1, 3, C3, [512, False]],           # 15

   [-1, 1, Conv, [256, 1, 1]],          # 16
   [-1, 1, nn.Upsample, [None, 2, 'nearest']],  # 17
   [[-1,6], 1, Concat, [1]],           # 18 cat backbone P3
   [-1, 3, C3, [256, False]],           # 19 (P3/8-small)

   [-1, 1, Conv, [256, 3, 2]],          # 20
   [[-1,16], 1, Concat, [1]],           # 21 cat head P4
   [-1, 3, C3, [512, False]],           # 22 (P4/16-medium)

   [-1, 1, Conv, [512, 3, 2]],          # 23
   [[-1,12], 1, Concat, [1]],           # 24 cat head P5
   [-1, 3, C3, [1024, False]],          # 25 (P5/32-large)

   [[19, 22, 25], 1, Detect, [nc, anchors]],    # 26 Detect(P3, P4, P5)
  ]
