# parameters
nc: 1  # number of classes
depth_multiple: 1.00  # model depth multiple
width_multiple: 1.00  # layer channel multiple

# anchors
anchors:
  - [10,13, 16,30, 33,23]   # P3/8
  - [30,61, 62,45, 59,119]  # P4/16
  - [116,90, 156,198, 373,326]  # P5/32

# YOLOv5 backbone
backbone:
  # [from, number, module, args]
  # Two Stream
  [
    ######### TransformerBlock One #############
    # stream one
    [-1, 1, Focus, [64, 3]],    # 0-P1/2
    [-1, 1, Conv, [128, 3, 2]], # 1-P2/4
    [-1, 3, C3, [128]],   # 2-P2/4
    [-1, 1, Conv, [256, 3, 2]],  # 3-P3/8
    [-1, 9, C3, [256]],   # 4-P3/8
    # stream two
    [-4, 1, Focus, [64, 3]],    # 5-P1/2
    [-1, 1, Conv, [128, 3, 2]], # 6-P2/4
    [-1, 3, C3, [128]],   # 7-P2/4
    [-1, 1, Conv, [256, 3, 2]],  # 8-P3/8
    [-1, 9, C3, [256]],   # 9-P3/8

   # transformer fusion
    [[4,9], 1, GPT, [256]],   # 10-P3/8
    [[4,10], 1, Add2, [256,0]],    # 11-P3/8 stream one x+trans[0]
    [[9,10], 1, Add2, [256,1]],    # 12-P3/8 stream two x+trans[1]


   ######### TransformerBlock Two #############
   # stream one
    [11, 1, Conv, [512, 3, 2]],   # 13-P4/16
    [-1, 9, C3, [512]],   # 14-P4/16
   # stream two
    [12, 1, Conv, [512, 3, 2]],   # 15-P4/16
    [-1, 9, C3, [512]],   # 16-P4/16
   # transformer fusion
    [[14,16], 1, GPT, [512]],   # 17-P3/8
    [[14,17], 1, Add2, [512,0]],    # 18-P3/8 stream one x+trans[0]
    [[16,17], 1, Add2, [512,1]],    # 19-P3/8 stream two x+trans[1]


    ######### TransformerBlock Three #############
    # stream one
    [18, 1, Conv, [1024, 3, 2]],    # 20-P5/32
    [-1, 1, SPP, [1024, [5, 9, 13]]],   # 21-P5/32
    [-1, 3, C3, [1024, False]],   # 22-P5/32
    # stream two
    [19, 1, Conv, [1024, 3, 2]],    # 23-P5/32
    [-1, 1, SPP, [1024, [5, 9, 13]]],   # 24-P5/32
    [-1, 3, C3, [1024, False]],   # 25-P5/32
    # transformer fusion
    [[22,25], 1, GPT, [1024]],    # 26-P5/32
    [[22,26], 1, Add2, [1024,0]],    # 27-P5/32 stream one x+trans[0]
    [[25,26], 1, Add2, [1024,1]],    # 28-P5/32 stream two x+trans[1]


    ######### Add Block #############
    [[11,12], 1, Add, [1]],   # 29-P3/8 fusion backbone P3
    [[18,19], 1, Add, [1]],   # 30-P4/16 fusion backbone P4
    [[27,28], 1, Add, [1]],   # 31-P5/32 fusion backbone P5
    
    
    ### stream 3
    [-8, 1, Focus, [64, 3]],    # 32-P1/2
    [-1, 1, Conv, [128, 3, 2]], #33-P2/4
    [-1, 3, C3, [128]],   # 34-P2/4
    [-1, 1, Conv, [256, 3, 2]],  # 35-P3/8
    [-1, 9, C3, [256]],   # 36-P3/8

    # transformer fusion
    [[4,36], 1, GPT, [256]],   # 37-P3/8
    [[4,37], 1, Add2, [256,0]],    # 38-P3/8 stream one x+trans[0]
    [[36,37], 1, Add2, [256,1]],    # 39-P3/8 stream two x+trans[1]
    
    # stream 3
    [39, 1, Conv, [512, 3, 2]],   # 40-P4/16
    [-1, 9, C3, [512]],   # 41-P4/16
    # transformer fusion
    [[14,41], 1, GPT, [512]],   # 42-P3/8
    [[14,42], 1, Add2, [512,0]],    # 43-P3/8 stream one x+trans[0]
    [[41,42], 1, Add2, [512,1]],    # 44-P3/8 stream two x+trans[1]
    
    # stream 3
    [44, 1, Conv, [1024, 3, 2]],    # 45-P5/32
    [-1, 1, SPP, [1024, [5, 9, 13]]],   # 46-P5/32
    [-1, 3, C3, [1024, False]],   # 47-P5/32
    # transformer fusion
    [[22,47], 1, GPT, [1024]],    # 48-P5/32
    [[22,48], 1, Add2, [1024,0]],    # 49-P5/32 stream one x+trans[0]
    [[47,48], 1, Add2, [1024,1]],    # 50-P5/32 stream two x+trans[1]


    ######### Add Block #############
    [[38,39], 1, Add, [1]],   # 51-P3/8 fusion backbone P3
    [[43,44], 1, Add, [1]],   # 52-P4/16 fusion backbone P4
    [[49,50], 1, Add, [1]],   # 53-P5/32 fusion backbone P5

  ]


# YOLOv5 head
head:
  [
    [-1, 1, Conv, [512, 1, 1]],   # 54
    [-1, 1, nn.Upsample, [None, 2, 'nearest']],   # 55
    [[-1,52], 1, Concat, [1]],    # 56 cat backbone P4
    [-1, 3, C3, [512, False]],    # 57

    [-1, 1, Conv, [256, 1, 1]],   # 58
    [-1, 1, nn.Upsample, [None, 2, 'nearest']],   # 59
    [[-1,51], 1, Concat, [1]],    # 60 cat backbone P3
    [-1, 3, C3, [256, False]],    # 61 (P3/8-small)

    [-1, 1, Conv, [256, 3, 2]],   # 62
    [[-1,58], 1, Concat, [1]],    # 63 cat head P4
    [-1, 3, C3, [512, False]],    # 64 (P4/16-medium)

    [-1, 1, Conv, [512, 3, 2]],    # 65
    [[-1,54], 1, Concat, [1]],     # 66 cat head P5
    [-1, 3, C3, [1024, False]],     # 67 (P5/32-large)
    
    ####
    [31, 1, Conv, [512, 1, 1]],           # 68
    [-1, 1, nn.Upsample, [None, 2, 'nearest']],  # 
    [[-1,30], 1, Concat, [1]],           # 70 cat backbone P4
    [-1, 3, C3, [512, False]],           # 71

    [-1, 1, Conv, [256, 1, 1]],          # 72
    [-1, 1, nn.Upsample, [None, 2, 'nearest']],  # 
    [[-1,29], 1, Concat, [1]],            # 74 cat backbone P3
    [-1, 3, C3, [256, False]],           # 75 (P3/8-small)

    [-1, 1, Conv, [256, 3, 2]],          # 76
    [[-1,72], 1, Concat, [1]],           # 77 cat head P4
    [-1, 3, C3, [512, False]],           # 78 (P4/16-medium)

    [-1, 1, Conv, [512, 3, 2]],          # 79
    [[-1,68], 1, Concat, [1]],           # 80 cat head P5
    [-1, 3, C3, [1024, False]],          # 81 (P5/32-large)
   
   
    ####
    [[61, 64, 67], 1, Detect, [nc, anchors]],    # Detect(P3, P4, P5) 82 rgb+3
    [[75, 78, 81], 1, Detect, [nc, anchors]],    # Detect(P3, P4, P5) 83 rgb+2
   
  ]
