# parameters
nc: 1  # number of classes
depth_multiple: 1.00  # model depth multiple
width_multiple: 1.00  # layer channel multiple

# anchors
anchors:
  - [10,13, 16,30, 33,23]   # P3/8
  - [30,61, 62,45, 59,119]  # P4/16
  - [116,90, 156,198, 373,326]  # P5/32

# YOLOv5 backbone
backbone:
  # [from, number, module, args]
  # Two Stream
  [
    # stream one
    [-1, 1, Focus, [64, 3]],    # 0-P1/2
    [-1, 1, Conv, [128, 3, 2]], # 1-P2/4
    [-1, 3, C3, [128]],   # 2-P2/4
    [-1, 1, Conv, [256, 3, 2]],  # 3-P3/8
    [-1, 9, C3, [256]],   # 4-P3/8
    [-1, 1, Conv, [512, 3, 2]],   # 5-P4/16
    [-1, 9, C3, [512]],   # 6-P4/16
    [-1, 1, Conv, [1024, 3, 2]],    # 7-P5/32
    [-1, 1, SPP, [1024, [5, 9, 13]]],   # 8-P5/32
    [-1, 3, C3, [1024, False]],   # 9-P5/32
    # stream two
    [-4, 1, Focus, [64, 3]],    # 10-P1/2
    [-1, 1, Conv, [128, 3, 2]], # 11-P2/4
    [-1, 3, C3, [128]],   # 12-P2/4
    [-1, 1, Conv, [256, 3, 2]],  # 13-P3/8
    [-1, 9, C3, [256]],   # 14-P3/8
    [-1, 1, Conv, [512, 3, 2]],   # 15-P4/16
    [-1, 9, C3, [512]],   # 16-P4/16
    [-1, 1, Conv, [1024, 3, 2]],    # 17-P5/32
    [-1, 1, SPP, [1024, [5, 9, 13]]],   # 18-P5/32
    [-1, 3, C3, [1024, False]],   # 19-P5/32
    # transformer fusion
    [[9,19], 1, GPT, [1024]],    # 20-P5/32
    [[9,20], 1, Add2, [1024,0]],    # 21-P5/32 stream one x+trans[0]
    [[19,20], 1, Add2, [1024,1]],    # 22-P5/32 stream two x+trans[1]
    
    [[21,22], 1, Concat, [1]],     # 23
    [-1, 1, Conv, [2048, 1, 1]],   # 24
    
    ######### Add Block #############
    [[4,14], 1, Add, [1]],    # 25
    [[6,16], 1, Add, [1]],   # 26

  ]


# YOLOv5 head
head:
  [
    [24, 1, Conv, [512, 1, 1]],   # 27
    [-1, 1, nn.Upsample, [None, 2, 'nearest']],   # 28
    [[-1,26], 1, Concat, [1]],    # 29 cat backbone P4
    [-1, 3, C3, [512, False]],    # 30

    [-1, 1, Conv, [256, 1, 1]],   # 31
    [-1, 1, nn.Upsample, [None, 2, 'nearest']],   # 32
    [[-1,25], 1, Concat, [1]],    # 33 cat backbone P3
    [-1, 3, C3, [256, False]],    # 34 (P3/8-small)

    [-1, 1, Conv, [256, 3, 2]],   # 35
    [[-1,31], 1, Concat, [1]],    # 36 cat head P4
    [-1, 3, C3, [512, False]],    # 37 (P4/16-medium)

    [-1, 1, Conv, [512, 3, 2]],    # 38
    [[-1,27], 1, Concat, [1]],     # 39 cat head P5
    [-1, 3, C3, [1024, False]],     # 40 (P5/32-large)

    [[34, 37, 40], 1, Detect, [nc, anchors]],   # Detect(P3, P4, P5)
  ]
